Using TensorFlow backend.
Generating classification ready images
Creating dataset for classification
(9623, 100, 100, 3)
Done!

_________________________________________________________________
Layer (type)                 Output Shape              Param #
=================================================================
conv2d_1 (Conv2D)            (None, 98, 98, 64)        1792
_________________________________________________________________
max_pooling2d_1 (MaxPooling2 (None, 49, 49, 64)        0
_________________________________________________________________
conv2d_2 (Conv2D)            (None, 49, 49, 64)        36928
_________________________________________________________________
max_pooling2d_2 (MaxPooling2 (None, 24, 24, 64)        0
_________________________________________________________________
conv2d_3 (Conv2D)            (None, 24, 24, 64)        36928
_________________________________________________________________
max_pooling2d_3 (MaxPooling2 (None, 12, 12, 64)        0
_________________________________________________________________
conv2d_4 (Conv2D)            (None, 12, 12, 64)        36928
_________________________________________________________________
max_pooling2d_4 (MaxPooling2 (None, 6, 6, 64)          0
_________________________________________________________________
conv2d_5 (Conv2D)            (None, 6, 6, 64)          36928
_________________________________________________________________
max_pooling2d_5 (MaxPooling2 (None, 3, 3, 64)          0
_________________________________________________________________
conv2d_6 (Conv2D)            (None, 1, 1, 256)         147712
_________________________________________________________________
flatten_1 (Flatten)          (None, 256)               0
_________________________________________________________________
dense_1 (Dense)              (None, 128)               32896
_________________________________________________________________
dropout_1 (Dropout)          (None, 128)               0
_________________________________________________________________
dense_2 (Dense)              (None, 128)               16512
_________________________________________________________________
dropout_2 (Dropout)          (None, 128)               0
_________________________________________________________________
dense_3 (Dense)              (None, 5)                 645
=================================================================
Total params: 347,269.0
Trainable params: 347,269.0
Non-trainable params: 0.0
_________________________________________________________________
Epoch 1/50
2017-05-20 17:33:51.227620: W tensorflow/core/platform/cpu_feature_guard.cc:45] The TensorFlow library wasn't compiled to use SSE4.1 instructions, but these are available on your machine and could speed up CPU computations.
…
