(NN) ubuntu@ip-172-31-18-177:~$ python3 CoinRecognition6.py
Using TensorFlow backend.
Generating classification ready images
Creating dataset for classification
(7882, 128, 128, 3)
Done!

_________________________________________________________________
Layer (type)                 Output Shape              Param #
=================================================================
conv2d_1 (Conv2D)            (None, 126, 126, 64)      1792
_________________________________________________________________
max_pooling2d_1 (MaxPooling2 (None, 63, 63, 64)        0
_________________________________________________________________
conv2d_2 (Conv2D)            (None, 63, 63, 64)        36928
_________________________________________________________________
max_pooling2d_2 (MaxPooling2 (None, 31, 31, 64)        0
_________________________________________________________________
conv2d_3 (Conv2D)            (None, 31, 31, 64)        36928
_________________________________________________________________
max_pooling2d_3 (MaxPooling2 (None, 15, 15, 64)        0
_________________________________________________________________
conv2d_4 (Conv2D)            (None, 15, 15, 64)        36928
_________________________________________________________________
max_pooling2d_4 (MaxPooling2 (None, 7, 7, 64)          0
_________________________________________________________________
conv2d_5 (Conv2D)            (None, 7, 7, 64)          36928
_________________________________________________________________
max_pooling2d_5 (MaxPooling2 (None, 3, 3, 64)          0
_________________________________________________________________
conv2d_6 (Conv2D)            (None, 1, 1, 256)         147712
_________________________________________________________________
flatten_1 (Flatten)          (None, 256)               0
_________________________________________________________________
dense_1 (Dense)              (None, 256)               65792
_________________________________________________________________
dropout_1 (Dropout)          (None, 256)               0
_________________________________________________________________
dense_2 (Dense)              (None, 128)               32896
_________________________________________________________________
dropout_2 (Dropout)          (None, 128)               0
_________________________________________________________________
dense_3 (Dense)              (None, 64)                8256
_________________________________________________________________
dropout_3 (Dropout)          (None, 64)                0
_________________________________________________________________
dense_4 (Dense)              (None, 5)                 325
=================================================================
Total params: 404,485.0
Trainable params: 404,485.0
Non-trainable params: 0.0
_________________________________________________________________
2017-05-19 23:54:54.621692: W tensorflow/core/platform/cpu_feature_guard.cc:45] The TensorFlow library wasn't compiled to use SSE4.1 instructions, but these are available on your machine and could speed up CPU computations.
…
